…
2021-05-22	10:09:47	INFO	stateSize = 13
2021-05-22	10:09:47	INFO	Parameter n is 50
2021-05-22	10:09:47	INFO	Parameter t is 55
2021-05-22	10:09:47	INFO	Parameter a is 8
2021-05-22	10:09:47	INFO	Parameter p is ../Saved_model/2021-05-22-04-42-Olog/50_800_55_8_0.002_0.009_
2021-05-22	10:09:47	INFO	Parameter s is 1000
2021-05-22	10:09:47	INFO	Parameter d is False
2021-05-22	10:09:47	INFO	Parameter f is False
2021-05-22	10:09:47	INFO	Parameter alr is 0.002
2021-05-22	10:09:47	INFO	Parameter clr is 0.009
2021-05-22	10:09:49	INFO	Model will be tested
2021-05-22	10:09:49	INFO	Policy Network: Network(
  (hypoThesis): Sequential(
    (0): Linear(in_features=13, out_features=20, bias=True)
    (1): Hardtanh(min_val=-3, max_val=6)
    (2): Linear(in_features=20, out_features=30, bias=True)
    (3): SELU()
    (4): Linear(in_features=30, out_features=8, bias=True)
    (5): Softmax(dim=0)
  )
)
2021-05-22	10:09:49	INFO	Critic Network: Network(
  (hypoThesis): Sequential(
    (0): Linear(in_features=13, out_features=15, bias=True)
    (1): Hardtanh(min_val=-3, max_val=6)
    (2): Linear(in_features=15, out_features=10, bias=True)
    (3): SELU()
    (4): Linear(in_features=10, out_features=1, bias=True)
    (5): LeakyReLU(negative_slope=0.01)
  )
)
2021-05-22	10:09:49	INFO	Policy Net loaded = Sequential(
  (0): Linear(in_features=13, out_features=20, bias=True)
  (1): Hardtanh(min_val=-3, max_val=6)
  (2): Linear(in_features=20, out_features=30, bias=True)
  (3): SELU()
  (4): Linear(in_features=30, out_features=8, bias=True)
  (5): Softmax(dim=0)
)
2021-05-22	10:09:49	INFO	Critic Net loaded = Sequential(
  (0): Linear(in_features=13, out_features=15, bias=True)
  (1): Hardtanh(min_val=-3, max_val=6)
  (2): Linear(in_features=15, out_features=10, bias=True)
  (3): SELU()
  (4): Linear(in_features=10, out_features=1, bias=True)
  (5): LeakyReLU(negative_slope=0.01)
)
2021-05-22	10:09:49	INFO	Model loaded from : ../Saved_model/2021-05-22-04-42-Olog/50_800_55_8_0.002_0.009_
2021-05-22	10:09:49	INFO	GOD inititated
2021-05-22	10:09:49	INFO	State Size = 13
2021-05-22	10:09:49	INFO	Action Space = [-20, -15, -10, -5, 5, 10, 15, 20]
2021-05-22	10:09:49	INFO	Debug = False
2021-05-22	10:09:49	INFO	Path of Model = ../Saved_model/2021-05-22-04-42-Olog/50_800_55_8_0.002_0.009_
2021-05-22	10:09:49	INFO	Steps tested for = 1000.0
2021-05-22	10:09:49	INFO	LSTM loaded = LSTM(13, 40, num_layers=2, batch_first=True)
2021-05-22	10:09:51	INFO	Environment inititated
2021-05-22	10:09:51	INFO	Environment parsed, Boss inititated
2021-05-22	10:09:51	INFO	ENV LSTM: LSTM(
  (lstm): LSTM(13, 40, num_layers=2, batch_first=True)
  (linear): Linear(in_features=40, out_features=13, bias=True)
  (norm): Hardtanh(min_val=-0.01, max_val=2)
)
2021-05-22	10:09:51	INFO	Testing Mode	Offline
2021-05-22	10:09:51	INFO	A3C State = [ 1.33397412e+03  1.14272451e+04  9.63134277e+03 -9.03999996e+00
 -2.12600002e+01  1.05388367e+02 -1.88299999e+01  4.78464783e+02
 -2.03599987e+01 -1.78607498e+02  1.39138641e+02  3.29218979e+01
  4.61153290e+02]
2021-05-22	10:09:51	DEBUG	self.denormalized_current_observation.shape = (13,)
…
